ml-agents/Project/Assets/Models/HedefeYonelme.onnx (onnx, 79314 bytes, 8 tensors)

network_body._body_endoder.seq_layers.0.weight f4 [128, 8]
0	0x3f044573	0.5166847
1	0xbd3d0d90	-0.046155512
2	0x3d8e610d	0.06952105
3	0xbe54bf14	-0.20776016
4	0x3dbc5159	0.09195203
5	0xbf2ee208	-0.68313646
6	0xbdcaab00	-0.09895897
7	0xbe94031a	-0.28908616
8	0xbee02856	-0.43780774
9	0xbeb87090	-0.36023378
10	0xbea63283	-0.32460412
11	0x3e9da7a6	0.30791968
12	0xbdd6f339	-0.1049561
13	0x3e3abbf0	0.18235755
14	0x3f037d15	0.51362735
15	0xbe4927e1	-0.19644119
16	0x3ddba593	0.1072494
17	0x3d3aaf3e	0.04557728
18	0x3e2da191	0.16956164
19	0x3d15767c	0.03648995
20	0xbcdd3a29	-0.027005272
21	0xbe7ea02a	-0.24865785
22	0x3ea1a89f	0.3157396
23	0xbe26ced1	-0.16289832
24	0x3f114fff	0.5676269
25	0xbe1bc815	-0.15213044
26	0x3de5cf6b	0.112212025
27	0x3f270146	0.6523632
28	0xbe0a7c1e	-0.1352391
29	0xbeec89d7	-0.46198913
30	0x3e6f60ea	0.23376814
31	0x3eb30c4d	0.34970322
32	0xbe99a959	-0.30012015
33	0xbf162b57	-0.5865988
34	0xbdc874dc	-0.09787914
35	0x3e46a25c	0.19397873
36	0x3ec25aaa	0.37959796
37	0x3e4e8c6a	0.20170751
38	0x3ec85753	0.39129123
39	0x3ee5bd38	0.44870925
40	0xbf143262	-0.5788938
41	0x3da7a594	0.081858784
42	0xbe42c127	-0.19018994
43	0x3d8b4c35	0.06801645
44	0xbe700523	-0.2343946
45	0x3e6db480	0.23213387
46	0xbe8028ef	-0.2503123
47	0xbe9dceb3	-0.3082176
48	0xbce5334d	-0.027978564
49	0xbd3256fa	-0.04353998
50	0xbec04e8a	-0.3755992
51	0xbd94d06d	-0.072663166
52	0xbe8cfc83	-0.275364
53	0xbe8d0036	-0.27539223
54	0xbcc04b1c	-0.023473315
55	0xbd913863	-0.07090833
56	0x3b21ff7b	0.0024718929
57	0x3ed14850	0.40875483
58	0xbda2bbb9	-0.079459615
59	0xbd2ed05d	-0.04267918
60	0x3ec3c625	0.3823711
61	0xbec2ef31	-0.38073114
62	0x3ddd7b12	0.108144894
63	0x3eb85af4	0.36006892
64	0xbee5e9c9	-0.44904926
65	0xbe126465	-0.1429611
66	0x3e37e949	0.17960085
67	0x3dcba70b	0.0994397
68	0x3eeb92c6	0.46010417
69	0xbb979606	-0.0046260385
70	0xbe3fd6b7	-0.18734251
71	0x3f30ccc8	0.6906247
72	0x3be8c478	0.007103499
73	0x3eea51e8	0.45765615
74	0xbe413232	-0.18866804
75	0xbdd5b9ba	-0.10435815
76	0x3ef9f170	0.48817015
77	0x3e9faec9	0.31188038
78	0xbe9d37c3	-0.30706605
79	0x3dff6f55	0.12472407
80	0x3d30532f	0.04304808
81	0xbed24d2e	-0.41074508
82	0x3e9ffe3b	0.3124865
83	0xbe037053	-0.12835817
84	0xbe5b005d	-0.21386857
85	0x3e60d285	0.21955307
86	0x3d87ecc0	0.06636953
87	0x3e825723	0.25457105
88	0x3eaf6c92	0.3426252
89	0xbde7fd0f	-0.11327564
90	0x3e1a93de	0.1509547
91	0x3d9cb8d5	0.076524414
92	0x3e6a3add	0.22874017
93	0xbd933a6a	-0.07188876
94	0x3e44248f	0.19154571
95	0x3d9430e6	0.07235889
96	0xbd6b3d67	-0.057431605
97	0xbe4128e7	-0.1886326
98	0xbe3f5561	-0.18684913
99	0xbe898eb0	-0.26866674
100	0xbeb02d68	-0.34409642
101	0xbea05c66	-0.31320494
102	0x3e384f25	0.17998941
103	0x3ed318cd	0.4122986
104	0x3e267674	0.16256124
105	0xbe78dea5	-0.24303682
106	0xbec1bc40	-0.37838936
107	0xbca17af8	-0.019711956
108	0x3ebd147a	0.36929685
109	0x3e91f4a1	0.2850695
110	0x3f09e42e	0.538638
111	0x3f36adc0	0.7135887
112	0x3f118fb4	0.568599
113	0x3e6d24b2	0.2315853
114	0x3f363af9	0.71183735
115	0x3ed80c8e	0.42197078
116	0x3e6fcf26	0.23418865
117	0x3e73b31d	0.23798795
118	0x3f03e763	0.51524943
119	0xbec8244a	-0.39090186
120	0x3d5f77e1	0.054557685
121	0xbd863368	-0.06552774
122	0xbe5efb35	-0.21775515
123	0x3eb4f808	0.35345483
124	0xbec0c7e4	-0.37652504
125	0x3ec1f43a	0.37881643
126	0x3efa8494	0.48929274
127	0x3ea3ddff	0.32005307
128	0x3ec3a1f7	0.38209507
129	0xbe425219	-0.1897663
130	0xbe8e090f	-0.27741286
131	0xbec4e816	-0.38458318
132	0x3e630f8b	0.22173898
133	0x3df0d046	0.11758475
134	0x3e887359	0.26650503
135	0xbea962b2	-0.3308311
136	0xbe94acbc	-0.29038036
137	0x3ec56862	0.385562
138	0x3e54befb	0.20775978
139	0x3da6f31c	0.08151838
140	0x3e93ad98	0.2884338
141	0x3b8a8c66	0.0042281626
142	0xbee5784c	-0.44818342
143	0xbe585768	-0.21127093
144	0xbe10b97b	-0.14133255
145	0x3f07d8ce	0.5306519
146	0xbed3240c	-0.4123844
147	0x3ecc237a	0.39870816
148	0xbebd0175	-0.36915174
149	0x3cbf93b4	0.02338586
150	0x3f8e4363	1.1114315
151	0xbe7cbf85	-0.24682434
152	0xbf1f7cde	-0.6229991
153	0xbe0b0a9a	-0.13578263
154	0x3eb8f2b5	0.3612267
155	0x3eccc20e	0.39991802
156	0x3e52bdd7	0.2058023
157	0xbf03164d	-0.51205903
158	0xbe3da7e2	-0.18521073
159	0xbdecd082	-0.11563207
160	0xbdb030dc	-0.08603069
161	0x3f0dc20d	0.55374223
162	0xbe7ec3bb	-0.24879353
163	0xbe407e80	-0.18798256
164	0xbe7fc819	-0.24978675
165	0xbf05b463	-0.52228373
166	0xbe190499	-0.1494316
167	0xbb516ff4	-0.0031957598
168	0x3e3f210f	0.18664955
169	0xbf2813f8	-0.6565547
170	0x3e90a3cd	0.2824997
171	0xbedb9edb	-0.42894635
172	0xbe8375e2	-0.25675875
173	0xbdf117fe	-0.11772154
174	0xbeb6fb7a	-0.35738736
175	0x3f09b7ba	0.5379597
176	0xbebfa026	-0.3742687
177	0x3d1aef25	0.037825722
178	0x3d0512b4	0.03248854
179	0x3c6230f3	0.013805616
180	0x3e7ca64b	0.2467281
181	0x3c54614d	0.012962651
182	0x3e87d848	0.26532197
183	0x3df4220f	0.11920559
184	0x3f1ad99b	0.6048829
185	0x3e252b81	0.16129877
186	0x3f098551	0.5371905
187	0x3e6f30d2	0.23358467
188	0xbe38585e	-0.1800246
189	0xbeff6154	-0.49878943
190	0xbd250e45	-0.04029681
191	0x3ee011c5	0.43763557
192	0x3e3b12f7	0.18268953
193	0x3dc8bc1f	0.09801506
194	0x3e653ff3	0.22387676
195	0x3deacd89	0.11464984
196	0xbe7ee4c3	-0.24891953
197	0x3de5e5a4	0.11225441
198	0x3e4ebe62	0.20189813
199	0xbef289ee	-0.47370857
200	0x3d9352ac	0.07193503
201	0x3ebd98a5	0.3703052
202	0xbe7ee088	-0.2489034
203	0xbf1a5d0d	-0.60298234
204	0x3f1874cd	0.59553224
205	0x3dcac55a	0.09900923
206	0x3ee2b327	0.44277307
207	0xbdd18869	-0.10231096
208	0xbd88161a	-0.066448405
209	0x3e0915cd	0.13387223
210	0xbf34d0a6	-0.7063087
211	0xbe027fbd	-0.12744041
212	0xbe0b3377	-0.13593851
213	0x3f444a4c	0.7667587
214	0x3cb6b1e0	0.022301614
215	0x3e84b372	0.25918156
216	0x3c39c9a4	0.011339579
217	0xbe777a7b	-0.24167816
218	0x3eb6ea8a	0.35725814
219	0xbee9fbcc	-0.45699918
220	0x3ee25cd3	0.44211444
221	0x3e517deb	0.2045819
222	0x3dae08b0	0.08497751
223	0xbe47d23f	-0.19513796
224	0xbe880677	-0.26567432
225	0x3e40946a	0.18806615
226	0x3d365d0d	0.044522334
227	0xbedbbedc	-0.42919052
228	0xbecc9f70	-0.3996539
229	0x3ed239b8	0.4105966
230	0x3c197882	0.00936711
231	0x3eaf2a60	0.34212017
232	0x3ebafe8b	0.36522326
233	0xbe1e57f4	-0.15463239
234	0xbea76544	-0.32694447
235	0x3c772972	0.015085565
236	0x3eb6abea	0.35678035
237	0xbd173c81	-0.036922935
238	0x3ea6b23b	0.32557854
239	0xbdb580e4	-0.088624746
240	0x3d296fe8	0.041366488
241	0xbe41d85e	-0.18930194
242	0x3da507e1	0.080581434
243	0x3eb42260	0.35182476
244	0xbe5a73b3	-0.21333198
245	0xbefd330e	-0.49453014
246	0xbdfb55ee	-0.12272249
247	0x3daeb14c	0.085299104
248	0x3ec30d12	0.3809591
249	0x3d9a4876	0.07533352
250	0xbf139d21	-0.57661635
251	0xbefe9600	-0.49723816
252	0x3ee959cb	0.4557632
253	0x3eeef21c	0.4666909
254	0xbf1a3300	-0.6023407
255	0xbea7634c	-0.32692945

network_body._body_endoder.seq_layers.0.bias f4 [128]
0	0xbd10cc43	-0.03535105
1	0x3d58668f	0.052832182
2	0x3b9c02a0	0.004761055
3	0xbc649619	-0.013951802
4	0x3c9c30a7	0.019066168
5	0xbd41bc3f	-0.047298666
6	0xbd13e52e	-0.036107235
7	0x3c0d4a62	0.008623691
8	0xbcf7c65c	-0.030245952
9	0xbc8136e4	-0.015773244
10	0xbcfe5063	-0.03104419
11	0xbb8daa30	-0.0043232664
12	0xbd3c1f65	-0.045928378
13	0x3d21e688	0.039526492
14	0x3d3cea41	0.04612184
15	0x3c0aed29	0.008479395
16	0x3c1159a6	0.0088714715
17	0x3cc3428e	0.023835447
18	0x3c9800dc	0.018555097
19	0x3d038f22	0.032118924
20	0xbc8326ec	-0.01600977
21	0xbd283d4d	-0.041074086
22	0x3d49d0d8	0.049271435
23	0xbd8e652c	-0.06952891
24	0x3d0b2fea	0.03398124
25	0x3cb1b930	0.02169475
26	0xbbde7957	-0.006789367
27	0x3d078ca3	0.033093106
28	0xbcbb3aa6	-0.022855114
29	0xbd70ddde	-0.05880534
30	0xbd333b22	-0.043757565
31	0xbcc78b75	-0.02435849
32	0xbd113f5f	-0.035460826
33	0xbcb2c95b	-0.02182453
34	0x3afafb2d	0.0019148343
35	0xbcdb53c3	-0.02677334
36	0x3cabe9ec	0.020985566
37	0xbd458485	-0.048222084
38	0xbbce6073	-0.0062981187
39	0x3be23c43	0.0069041564
40	0xbc33a31e	-0.010964183
41	0xbd64f00a	-0.05589298
42	0x3bbb626b	0.0057185194
43	0xbdb1bb86	-0.086783454
44	0x3ccdf9d7	0.025143547
45	0x3c3665fd	0.011132714
46	0x3d20ed7c	0.039288983
47	0x3cc69e52	0.024245415
48	0x3c8e76bb	0.0173906
49	0x3cc87300	0.024468899
50	0x3cf418d5	0.029796997
51	0x3d0eb589	0.034841094
52	0x3d28feea	0.04125873
53	0x3be6768b	0.0070331744
54	0x3ca4b939	0.020107852
55	0xbbae65d9	-0.0053222
56	0x3c05051e	0.008118896
57	0xbbe85580	-0.0070902705
58	0x3d1cba0c	0.038263366
59	0xbb2d97f7	-0.0026488283
60	0x3d2575e2	0.040395625
61	0x3bb93904	0.0056525487
62	0xbd852c5f	-0.06502604
63	0x3d5623f6	0.05228039
64	0x3b223959	0.002475342
65	0xbcaf49cb	-0.021397492
66	0x3874bf2e	5.8352183e-05
67	0x3ce219b8	0.027600154
68	0x3be67d3d	0.0070339725
69	0xbd88eebb	-0.06686159
70	0xbc008fde	-0.007846801
71	0x3ce02a83	0.027364021
72	0xbd52e5a2	-0.051488526
73	0x3d2455a6	0.040120743
74	0xbd515061	-0.051102046
75	0x3cc50155	0.024048487
76	0xbc16e0db	-0.009208883
77	0xbd10f14e	-0.035386376
78	0x3b48af35	0.003062201
79	0x3c260618	0.010133289
80	0xbc112009	-0.008857735
81	0xbcf48c28	-0.029851988
82	0xbc9bc775	-0.019016007
83	0x3c7c2385	0.015389328
84	0x3d2eed6d	0.042706896
85	0x3d8b0ff7	0.067901544
86	0x3cf5e503	0.030016428
87	0xbab7e7de	-0.0014030894
88	0x3b521286	0.0032054498
89	0x3c54956a	0.012975076
90	0xbc969893	-0.0183833
91	0xbc85caf9	-0.016332136
92	0x3b9204bb	0.0044561303
93	0xbb9d9b21	-0.0048097526
94	0x3c7e006a	0.015503028
95	0xbc8d9a7c	-0.017285578
96	0xbd2e5746	-0.0425637
97	0xbc3f354e	-0.011670424
98	0xbc47a658	-0.0121856555
99	0xbd3abb18	-0.045588583
100	0x3d481b27	0.04885402
101	0xbce93a14	-0.028470077
102	0x3b0db2bf	0.0021621434
103	0xbd8c12a5	-0.06839494
104	0x3a81cc02	0.0009902718
105	0xbd11c89c	-0.035591707
106	0x3c6479f3	0.013945091
107	0xba1f8c72	-0.00060862966
108	0xbd01ca42	-0.03168703
109	0xbcdec31e	-0.027192649
110	0xbcc644fc	-0.024202816
111	0xbd9ad546	-0.0756021
112	0xbcb20265	-0.021729657
113	0xbbc4e4c8	-0.006008718
114	0xbd4b11bf	-0.04957747
115	0xbbda773d	-0.0066670463
116	0x3d1e0ac7	0.038584497
117	0x3cb3dbba	0.02195536
118	0x3cf759b2	0.030194137
119	0xba95b22c	-0.0011420897
120	0x3c0a9c1a	0.008460069
121	0xbd0a81b8	-0.033815116
122	0x3d654171	0.055970613
123	0xbcdb7d38	-0.026793107
124	0x3d39ebf2	0.04539103
125	0xbcba650b	-0.02275326
126	0xbd227ab7	-0.03966781
127	0x3d29beed	0.041441847

network_body._body_endoder.seq_layers.2.weight f4 [128, 128]
0	0x3d97e336	0.07416384
1	0x3de48f9b	0.11160203
2	0x3ce83696	0.028346341
3	0xbd6bd630	-0.057577312
4	0xbd95852a	-0.0730079
5	0xbd1b6e35	-0.0379469
6	0x3e375e0b	0.17906968
7	0xbd9185a5	-0.07105569
8	0xbe612a47	-0.21988784
9	0x3de529cd	0.111896135
10	0x3c2abf39	0.010421568
11	0x3d5d82fe	0.054080002
12	0x3c187d0f	0.00930716
13	0x3e0a86ce	0.13527986
14	0x3d1b4c65	0.037914652
15	0xbd6a293f	-0.05716824
16	0x3e898768	0.2686112
17	0x3cf7da9e	0.030255612
18	0xba4947fa	-0.0007678267
19	0xbe007732	-0.1254547
20	0x3c8bd5d1	0.017069729
21	0xbe12705d	-0.14300676
22	0x3a1c9320	0.0005972851
23	0x3d2eadbe	0.042646162
24	0x3d483e61	0.048887614
25	0xbd8ede1a	-0.06975956
26	0xbcd563cb	-0.026048562
27	0xbce9a456	-0.028520744
28	0x3e156eaa	0.14592996
29	0x3b6610a6	0.0035105138
30	0xbd08f51f	-0.03343689
31	0xbda90ec9	-0.08254773
32	0xbd100c47	-0.03516796
33	0x3caa3f0a	0.020782012
34	0xbdbf91c8	-0.093539774
35	0xbcf28a26	-0.02960689
36	0xbd31c0ad	-0.04339664
37	0x3d1d80b2	0.03845281
38	0x3d2903df	0.041263457
39	0xbd8cfaea	-0.068837956
40	0x3b87623e	0.0041315844
41	0xbd1b3628	-0.037893444
42	0x3e22e76e	0.15908596
43	0x3e113f22	0.1418424
44	0xbdb9a774	-0.09065142
45	0xbca5dfdd	-0.020248348
46	0x3d449e40	0.04800248
47	0x3da3efdc	0.08004734
48	0x3d527e67	0.051390078
49	0xbd1c600b	-0.03817753
50	0x3d1301dc	0.035890445
51	0xbb0cb60f	-0.002147082
52	0x3e195ca9	0.14976753
53	0xbd266359	-0.04062209
54	0xbe087f83	-0.13329892
55	0x3c9d7dff	0.019225119
56	0xbdcdf58a	-0.100565985
57	0x3bd3c2b0	0.0064624175
58	0xbd8919ec	-0.06694397
59	0x3c08e67e	0.008355735
60	0x3dd5afcd	0.10433922
61	0x3b6bc110	0.0035973229
62	0xbc396123	-0.011314663
63	0xbd9aecbc	-0.07564685
64	0x3d4798b0	0.0487296
65	0x3d07ba53	0.033136677
66	0x3e0ffb5e	0.14060733
67	0x3dc84e02	0.09780504
68	0xbd474c89	-0.048656974
69	0x3c114d90	0.00886859
70	0xbd6b5d70	-0.057462156
71	0xbd84edf8	-0.064907014
72	0x3e0bcb74	0.1365183
73	0x3dad6e91	0.084683545
74	0xbe032d75	-0.12810309
75	0x3db2a535	0.08722917
76	0xbdc1ee68	-0.094693005
77	0x3d59025a	0.05298076
78	0xbdb47e03	-0.08813097
79	0x3e230187	0.15918551
80	0xbda009f0	-0.078143954
81	0x3cab99bd	0.020947332
82	0xbd9f81a5	-0.077883996
83	0x3e08fccf	0.13377689
84	0xbb532f98	-0.0032224413
85	0xbcbe1a7e	-0.023205992
86	0xbd791bf4	-0.060817674
87	0x3e3fa97e	0.18717
88	0x3db2e5c9	0.08735234
89	0xbc6434a1	-0.013928563
90	0xbe05abb4	-0.13053781
91	0x3da9dea8	0.082944214
92	0x3da91519	0.08255977
93	0xbdb45346	-0.08804946
94	0x3de4cee5	0.111722745
95	0x3e42a846	0.19009504
96	0x3c3c3404	0.011487011
97	0x3dc3d4c7	0.095620684
98	0xbdba77fd	-0.09104917
99	0xbda38de2	-0.079860464
100	0xbdc1033f	-0.09424447
101	0xbd1003ca	-0.035159864
102	0x3d27e53b	0.040990096
103	0xbe1d4565	-0.15358503
104	0x3d0b9580	0.03407812
105	0xbdb95437	-0.09049266
106	0x3cb3407d	0.021881336
107	0x3df755a6	0.12076883
108	0x3c699fa7	0.0142592555
109	0x3c650ba1	0.013979823
110	0xbe348973	-0.17630558
111	0xbe231d00	-0.15929031
112	0xbd6df002	-0.058090217
113	0xbb883d6f	-0.004157714
114	0x3d488161	0.04895151
115	0xbd4a9be1	-0.049465064
116	0xbd37260d	-0.044714022
117	0xbcc5aa62	-0.024129096
118	0xbdb4bcd9	-0.08825082
119	0x3e57cf99	0.21075286
120	0xbc993669	-0.018702703
121	0x3d63e65f	0.05563962
122	0xbd323a8f	-0.043512877
123	0xbd5bdefa	-0.053679444
124	0x3d6b1bac	0.057399437
125	0xbd4b59ed	-0.049646307
126	0xbd93e0bb	-0.07220598
127	0xbd904919	-0.07045192
128	0xbb7b4872	-0.0038342741
129	0x3d2c7868	0.042107016
130	0x3d9cf42a	0.07663758
131	0xbddc6cb9	-0.10762925
132	0x3be90a07	0.007111791
133	0x3bc763bf	0.0060848887
134	0xbcbfd3f0	-0.02341649
135	0xbdb428f1	-0.087968715
136	0xbdcd62d4	-0.100286156
137	0xbe019007	-0.12652598
138	0x3db29d56	0.08721416
139	0xbdd69544	-0.10477689
140	0x3d429b2b	0.04751126
141	0x3dad43d4	0.08460203
142	0xbcfa0e49	-0.03052439
143	0xbd779d13	-0.060452532
144	0xbbc4de58	-0.0060079508
145	0x3d8e4479	0.06946654
146	0xbd0ea0e3	-0.034821402
147	0xbe453614	-0.1925891
148	0x3e8ec04f	0.27881095
149	0xbd104f1e	-0.035231702
150	0x3d3c039a	0.045901872
151	0x3d3c0f62	0.045913108
152	0xb79aebcf	-1.8468038e-05
153	0xbdaf97b6	-0.085738584
154	0x3e01b61f	0.1266713
155	0xbc01a80a	-0.007913599
156	0xbc0db06d	-0.00864802
157	0x3d69d5cb	0.057088654
158	0x3d012611	0.031530444
159	0x3cdb6efc	0.02678632
160	0xbd0d4df6	-0.034498177
161	0xbd7360a8	-0.05941835
162	0xbd98d292	-0.07462038
163	0x3d30601e	0.043060414
164	0xbd4d2c8c	-0.05009131
165	0x3c61e3a7	0.013787187
166	0xbe12f22e	-0.14350197
167	0xbcd1409c	-0.025543503
168	0x3d5349e5	0.051584143
169	0x3db3e2dc	0.08783504
170	0xbc8742b8	-0.016511306
171	0x3c4e7328	0.012600698
172	0x3dfe2cda	0.124108985
173	0xbe1dbb4b	-0.15403478
174	0xbd87935a	-0.06619902
175	0x3d921800	0.07133484
176	0xbba54146	-0.0050431816
177	0x3bc848d4	0.0061121974
178	0xbcabaad6	-0.020955484
179	0xbdac769a	-0.08421059
180	0xbe2f7d40	-0.17137623
181	0xba792683	-0.0009504335
182	0x3caa38b1	0.020778986
183	0x3d7eff87	0.06225541
184	0x3e329afd	0.17441936
185	0x3d92b603	0.07163622
186	0xbd9afb56	-0.0756747
187	0x3d676d5f	0.05650079
188	0xbd88ea02	-0.066852584
189	0x3d31ebb6	0.043437682
190	0x3ddbfbd0	0.10741389
191	0xbe287947	-0.16452514
192	0xbc9bc33e	-0.019013997
193	0x3da78238	0.08179134
194	0xbbecb32f	-0.007223509
195	0x3df291d8	0.11844224
196	0xbd7ba550	-0.06143695
197	0xbd2f2832	-0.042762943
198	0xbdac0e2f	-0.08401143
199	0xbe58e676	-0.21181664
200	0xbe0c3ad2	-0.13694313
201	0x3e3a865d	0.18215318
202	0x3d656df6	0.05601307
203	0xbdeaa776	-0.11457722
204	0x3dc4b82e	0.09605442
205	0xbe0042d1	-0.12525488
206	0xbd1054d2	-0.03523714
207	0x3de8491b	0.11342069
208	0x3d665809	0.0562363
209	0x3da942a6	0.08264665
210	0x3d1eeb93	0.03879888
211	0x3d913437	0.07090037
212	0x3cd926d9	0.026507782
213	0xbdf40dfa	-0.11916728
214	0xbbd6f110	-0.0065594986
215	0xbe0b2367	-0.13587724
216	0x3c96fb26	0.018430304
217	0xbd95677f	-0.07295131
218	0x3dfe61ec	0.12421021
219	0xbd82c531	-0.063852675
220	0xbb94006e	-0.004516653
221	0x3dad6f94	0.084685475
222	0x3ce7dfba	0.028304923
223	0x3bee9cdd	0.007281883
224	0x3d6e38f4	0.058159783
225	0x3e3eedf5	0.18645461
226	0x3d3c127c	0.045916066
227	0x3cb7e877	0.022449715
228	0xbd9ff0b3	-0.078095816
229	0x3c114f60	0.008869022
230	0xbc783346	-0.015148943
231	0x3cbf5dbd	0.023360128
232	0x3ce9a341	0.028520228
233	0xbdf295a3	-0.11844947
234	0x3b847f32	0.004043483
235	0x3c3705f3	0.011170852
236	0xbbdc496f	-0.006722621
237	0xbd8e0885	-0.06935219
238	0x3d4e008a	0.050293483
239	0x3dbab432	0.09116401
240	0x3da1d018	0.07901019
241	0x3c691aa8	0.014227547
242	0xbc49aa04	-0.012308601
243	0x3e42c35f	0.1901984
244	0xbdabc662	-0.08387448
245	0xbd9aaa7f	-0.07552051
246	0x3d8cce2e	0.06875263
247	0xbd65f979	-0.05614612
248	0x3cb3046d	0.021852696
249	0x3d66a713	0.05631168
250	0x3d99e5e4	0.07514551
251	0x3baae680	0.005215466
252	0x3c45bd01	0.012068988
253	0x3d146443	0.03622843
254	0x3cf85f4b	0.030318877
255	0x3dcf6472	0.1012658

network_body._body_endoder.seq_layers.2.bias f4 [128]
0	0xbbe5bfad	-0.007011375
1	0xbd557db2	-0.052121826
2	0x3d4047e1	0.04694355
3	0x3d2dbf4e	0.04241877
4	0xbb0c36e0	-0.0021395013
5	0x3c97bdb1	0.01852307
6	0xbd0ba48b	-0.034092467
7	0xbd2770d7	-0.040879097
8	0x3c1b3548	0.009473152
9	0x3c99b74e	0.018764164
10	0x3d1e5f7b	0.038665276
11	0xbcf52161	-0.029923143
12	0x3c070738	0.008241467
13	0xbb448bf2	-0.002999064
14	0xbc54b0ad	-0.012981576
15	0xbcf94ac6	-0.030431163
16	0x3bb88491	0.0056310375
17	0x3bc132e9	0.0058959615
18	0xbcc93031	-0.024559112
19	0xb887a459	-6.467914e-05
20	0x3b35648c	0.0027678339
21	0x3bf46300	0.007458091
22	0x3b0e84fc	0.0021746745
23	0x3c7cd9c7	0.015432782
24	0xbc7189a7	-0.0147422915
25	0x3ccbb93e	0.024868604
26	0x3d05a42f	0.03262728
27	0x3cb9b8e0	0.022671163
28	0xbc76df5d	-0.015067902
29	0xbc241978	-0.010015838
30	0x3d32f2c2	0.043688543
31	0x3d266679	0.04062507
32	0xbc45aa55	-0.012064536
33	0x3d1fa08b	0.038971465
34	0xbd54346e	-0.051807813
35	0x3d5835d4	0.05278571
36	0x3c09ec7e	0.008418201
37	0xbc0b37e7	-0.008497215
38	0xbd690a7a	-0.056894757
39	0x3d7e7c32	0.06213016
40	0x3d013976	0.03154894
41	0xbc461569	-0.0120900655
42	0x3cbb4962	0.02286214
43	0x3d652ca6	0.055950783
44	0x3d5d344f	0.054004963
45	0xbce6211a	-0.028091956
46	0xbbfc4fe7	-0.007699955
47	0x3d12fe62	0.03588713
48	0xbcf36263	-0.02971
49	0xbb692d16	-0.0035579852
50	0x3d2e77f5	0.04259487
51	0x3ce1758a	0.027521867
52	0x3c55794c	0.013029408
53	0xbd7abc7c	-0.06121491
54	0x37484b4b	1.19384595e-05
55	0xbc36b322	-0.011151107
56	0x3bfaeac0	0.007657379
57	0x3c8775d0	0.01653567
58	0xbd88c29c	-0.06677744
59	0x3bd7f0d3	0.006589988
60	0x3cf9f45f	0.030512033
61	0x3d858ed3	0.06521382
62	0x3aa95fcd	0.0012922228
63	0x3d9ef23f	0.077610485
64	0x3caff2e8	0.021478131
65	0x3be50ced	0.0069900663
66	0xbd288248	-0.04113987
67	0xbb9e00ee	-0.004821888
68	0xbd4d1379	-0.0500674
69	0x3b99bfbd	0.0046920464
70	0xbbace30b	-0.005276089
71	0x3d4b8d60	0.049695373
72	0xbc499e9e	-0.012305884
73	0x3c2ffcb6	0.010741403
74	0xbc1ff128	-0.009762086
75	0x3c3d60c5	0.011558716
76	0xbbce01db	-0.0062868423
77	0x3c222a66	0.009897804
78	0x3d36c157	0.044617977
79	0xbd423b20	-0.047419667
80	0x3c7ec449	0.015549728
81	0xbc313fab	-0.010818402
82	0xbd720030	-0.05908221
83	0x3d31b274	0.043383077
84	0x3d0584f9	0.032597516
85	0x3d24cb3c	0.040232882
86	0xbd40e455	-0.047092754
87	0xbd3b310e	-0.04570108
88	0x3ab6e995	0.0013955111
89	0xbb547b07	-0.0032421963
90	0x3d9e6361	0.07733799
91	0x3d936d6a	0.071986035
92	0x3cfca7b8	0.030841693
93	0x3aeffb64	0.0018309173
94	0x3b1abe54	0.002361198
95	0xbcb87352	-0.022515927
96	0xbca638f8	-0.020290837
97	0xbcfbc9f7	-0.030735953
98	0xbd9c5f37	-0.07635348
99	0xbd06481f	-0.032783624
100	0xbcd9eede	-0.026603159
101	0x3c9b6e4a	0.018973488
102	0xbb9d24c0	-0.0047956407
103	0xb90ff5e2	-0.00013729141
104	0xbb9fa534	-0.0048719887
105	0xbc42d082	-0.011890532
106	0xbcef6bb3	-0.02922616
107	0x3cba9319	0.02277522
108	0xbc8b4b9d	-0.017003829
109	0xbc2963d8	-0.010338746
110	0x373a16a3	1.1091734e-05
111	0x3cefea20	0.029286444
112	0x3a8a13b7	0.001053444
113	0x3ceeea0b	0.029164335
114	0x3d285336	0.04109498
115	0x3c102923	0.00879887
116	0x3d08ead9	0.033427093
117	0xbd416edb	-0.04722486
118	0x3ca4af9b	0.020103266
119	0x3d7d57d6	0.061851345
120	0xbc964a42	-0.018345956
121	0x3cac715f	0.021050153
122	0x3ca52037	0.020156963
123	0x3d28b53e	0.04118847
124	0x3bec65bd	0.0072142766
125	0x3c304646	0.010758942
126	0x3ca20ca4	0.019781418
127	0x3c2dadc3	0.01060051

action_model._continuous_distribution.log_sigma f4 [1, 2]
0	0xbd3f2712	-0.04666812
1	0xbd514709	-0.051093135

action_model._continuous_distribution.mu.weight f4 [2, 128]
0	0x3caab7e8	0.020839646
1	0x3c457e87	0.012054092
2	0x3d8949ae	0.067035064
3	0x3d3b41d4	0.045717075
4	0x3d042674	0.032263234
5	0xbd0bf437	-0.03416845
6	0x39e546e3	0.00043731098
7	0xbce89c9e	-0.028394993
8	0x3cc5aee8	0.024131253
9	0xbc6dfc30	-0.014525458
10	0x3d32a7dd	0.04361712
11	0x3cef7a30	0.029233068
12	0xbc4b9b67	-0.0124271875
13	0xbd0647d7	-0.032783356
14	0x3c3e3738	0.011609845
15	0xbc5bab58	-0.013407551
16	0xbcb1a284	-0.021683939
17	0x3c1ea133	0.009681988
18	0xbc4dc922	-0.012560161
19	0xbb2bf14b	-0.002623635
20	0xbd290f73	-0.0412745
21	0x3d80c362	0.06287266
22	0xbcb22083	-0.021744018
23	0xbc4213f9	-0.011845582
24	0x3c41daeb	0.011831979
25	0x3d8ebad8	0.06969231
26	0x3d1c1875	0.03810926
27	0x3c6c191f	0.014410286
28	0x3bc7e708	0.006100539
29	0x3caaa05b	0.020828417
30	0x3ab1cc8d	0.0013564989
31	0xbd539da6	-0.051664017
32	0xbcfa06e3	-0.030520862
33	0x3d928919	0.071550556
34	0xbb542854	-0.003237267
35	0x3d452833	0.04813404
36	0xbd43e334	-0.0478241
37	0xbcb31be5	-0.021863887
38	0xbbb23489	-0.0054383916
39	0x3d177a67	0.036981966
40	0x3d1daaf8	0.038493127
41	0xbbdcf76c	-0.006743362
42	0xbd86cc33	-0.06581917
43	0xbcdea0a1	-0.027176203
44	0xbba92755	-0.0051621594
45	0x3caac103	0.020843988
46	0xbc2af1b7	-0.010433606
47	0xbd569220	-0.05238545
48	0xbcf58822	-0.02997214
49	0xbc45c017	-0.012069724
50	0xbd1f18d3	-0.038842034
51	0x3cadc41f	0.021211682
52	0x3cb18f2d	0.021674717
53	0xbc597dc8	-0.0132746175
54	0xbd4555b6	-0.048177443
55	0x3cb030c8	0.021507636
56	0xbd545d04	-0.05184652
57	0x3d0ff5c4	0.03514649
58	0xbb266fad	-0.0025396154
59	0x3c4c91bb	0.012485917
60	0xbcc994c7	-0.024607075
61	0xbd86656a	-0.06562312
62	0x3ca25d6b	0.019819936
63	0x3d8d88a3	0.06910827
64	0x3cf9758f	0.030451564
65	0xbd072fbf	-0.03300452
66	0xbcd53ef8	-0.026031002
67	0x3d045d03	0.032315265
68	0xbbb1bee1	-0.005424366
69	0xbb1bfc5c	-0.002380154
70	0x3c179feb	0.009254436
71	0x3db2c28d	0.08728514
72	0x3ba9b303	0.0051788106
73	0xbc620008	-0.013793953
74	0xbc97550f	-0.018473176
75	0x3d7a18b3	0.06105871
76	0xbd0200dd	-0.031739105
77	0x3d458e57	0.04823145
78	0x3d88865f	0.06666254
79	0xbc505a88	-0.012716897
80	0x3d0e9a8f	0.034815367
81	0xbc8c67f4	-0.017139412
82	0xbb925b45	-0.0044664466
83	0xbc6caca7	-0.01444546
84	0x3d1da890	0.03849083
85	0x3db0c903	0.0863209
86	0xbbf365a5	-0.0074278885
87	0x3c983ed8	0.018584654
88	0xbd4a57bd	-0.04940008
89	0xbc8d46ae	-0.017245617
90	0xbd0ce4a7	-0.034397747
91	0xbc8771ab	-0.016533693
92	0xbd70c496	-0.05878123
93	0x3ced8891	0.028995784
94	0x3cdf9cc6	0.027296435
95	0x3995a905	0.00028545424
96	0xbce970a2	-0.02849609
97	0xbbaffb79	-0.005370554
98	0x39eb31dd	0.00044859844
99	0xbac9b767	-0.0015389741
100	0x3c7fd8bb	0.015615637
101	0xbcc03dfb	-0.023467055
102	0x3c4e690b	0.012598286
103	0x3b8a3a24	0.0042183567
104	0xbc2b14ff	-0.010442018
105	0x3bccfad3	0.0062554865
106	0xbc2f792c	-0.010710042
107	0x3d16070e	0.03662782
108	0xbc8ab5b6	-0.01693235
109	0x3c88fc6c	0.016721927
110	0xbd6fcf4c	-0.058547303
111	0xbd2d67c9	-0.042335305
112	0x3c5fa995	0.013651271
113	0x3d2b76f5	0.041861493
114	0xbd8a7d7a	-0.06762214
115	0xbd1ec9e6	-0.038766764
116	0xbcf59f12	-0.029983077
117	0xbd123a9f	-0.035700437
118	0xbd699b1b	-0.057032686
119	0xbd040c64	-0.03223838
120	0x3c45a8e6	0.012064194
121	0xbd39fb6d	-0.045405794
122	0x3d017d89	0.03161386
123	0x3d2227dd	0.039588798
124	0xbd002e6b	-0.031294268
125	0xbcfaaa6d	-0.030598843
126	0x3cec4e97	0.028846068
127	0xbd1b77a1	-0.037955884
128	0xbc8dda88	-0.017316118
129	0xbb65ba98	-0.0035053845
130	0x3ca34334	0.019929506
131	0x3c226a77	0.0099130785
132	0xbdc0d11b	-0.09414884
133	0xbb91b5f8	-0.004446741
134	0xbc20b6bb	-0.009809191
135	0xbd01f7c9	-0.031730447
136	0xbc9fa677	-0.019488556
137	0x3c922b52	0.017842922
138	0x3d672c79	0.056438897
139	0xbc3221af	-0.010872289
140	0x3c3a284b	0.011362146
141	0xbd2c2920	-0.042031407
142	0xbc806348	-0.015672341
143	0xba8c0319	-0.0010682076
144	0xbd32d27a	-0.043657757
145	0x3cea2efd	0.028586859
146	0xbba29374	-0.0049614254
147	0x3d257646	0.040395997
148	0xbd109d9a	-0.03530655
149	0x3c70f44d	0.014706683
150	0xba6572b7	-0.00087527506
151	0x3c9111dc	0.017708711
152	0xbd7710f6	-0.06031891
153	0x3acb490c	0.001550944
154	0x3d0ff32d	0.03514402
155	0xbc2ef599	-0.010678672
156	0xbc233f48	-0.009963818
157	0xbd2a12b3	-0.04152174
158	0x3d513f5e	0.051085822
159	0x3d983ae8	0.074331105
160	0xbc410a9e	-0.0117823165
161	0xbd2b18c6	-0.041771673
162	0xbc5bfcaf	-0.013426944
163	0xbce5b1cf	-0.028038887
164	0xbc815cf4	-0.015791394
165	0xbd2ed3d4	-0.042682484
166	0xbc215246	-0.009846276
167	0x3d7d890a	0.06189827
168	0xbbeb94d4	-0.0071893726
169	0xbcb4897b	-0.022038212
170	0xbd2be24d	-0.041963864
171	0x3d80acc0	0.062829494
172	0x3d4a43a2	0.049380906
173	0xbcf8a797	-0.03035335
174	0xbc0fa483	-0.00876725
175	0x3c84007c	0.016113512
176	0xbd178f10	-0.03700167
177	0xbc937287	-0.017998947
178	0x3d13029d	0.035891164
179	0xbd95f067	-0.07321244
180	0xbbbae417	-0.00570346
181	0xbcc62e63	-0.02419204
182	0xbcd2fed7	-0.025756283
183	0xbd397ed7	-0.04528698
184	0x3ab9068e	0.0014116333
185	0xbd0b9c91	-0.03408486
186	0x3a943aa6	0.0011308983
187	0xbd018bcd	-0.031627465
188	0x3d50b615	0.050954897
189	0x3d895362	0.06705357
190	0xbd83a6a6	-0.0642827
191	0x3d4a82a1	0.049440984
192	0xbd088923	-0.03333391
193	0xbd3a4849	-0.045479093
194	0xbc856574	-0.016283728
195	0xbd291483	-0.041279327
196	0xbbab02ac	-0.0052188244
197	0xbca222f2	-0.019792054
198	0xbaf443db	-0.0018635945
199	0x3d0f808c	0.0350347
200	0xbade5748	-0.0016963268
201	0xbd2395ea	-0.03993789
202	0x3c871f7a	0.016494501
203	0x3ccda8e9	0.025104957
204	0xbd1ef537	-0.038808074
205	0xbc9d2e7c	-0.019187205
206	0x3923655a	0.00015582648
207	0xbc8ea93a	-0.017414678
208	0xbd4924ff	-0.049107548
209	0x3ca187e7	0.019718124
210	0x3c302ee7	0.01075337
211	0x3d4dc85e	0.050239913
212	0xbc089618	-0.008336566
213	0x3be98b99	0.007127237
214	0xbc846913	-0.016163385
215	0x3bf67b30	0.0075220093
216	0x3c928a25	0.017888138
217	0x3c4c5f3d	0.012473878
218	0x3db76ecd	0.089566804
219	0x3dda6dfd	0.1066551
220	0x3d2c9fe1	0.04214466
221	0xbd072c9c	-0.033001527
222	0x3cc65b90	0.024213582
223	0xbd4f8169	-0.050660525
224	0xbcdcdec8	-0.0269617
225	0xbc0c9e0f	-0.008582606
226	0x3ac76e20	0.0015215315
227	0x3ca6eddd	0.020377094
228	0xbd250ba9	-0.040294323
229	0xbd6c1ea8	-0.057646424
230	0xbd4e9109	-0.050431285
231	0xbd7c5b48	-0.06161049
232	0xbd21d212	-0.03950698
233	0x3c8ef01c	0.017448477
234	0xbc0fe680	-0.008782983
235	0xbd9735ab	-0.07383283
236	0xbd0bf598	-0.034169763
237	0xbc6e6531	-0.014550493
238	0xbd4b4a94	-0.04963167
239	0x3d496f25	0.04917826
240	0x3c057b92	0.008147137
241	0x3c84ecd3	0.016226208
242	0x3cbd5049	0.023109572
243	0x3c8cfcb0	0.017210335
244	0xb96b789e	-0.0002245628
245	0xbd6e1d30	-0.058133304
246	0xbc61afda	-0.013774836
247	0x3d823dad	0.0635942
248	0x3cba3413	0.022729909
249	0xbd654bea	-0.0559806
250	0xbbba2403	-0.0056805625
251	0x3d8447a1	0.06458975
252	0xbd3c70f6	-0.046006165
253	0x3cf3b8dc	0.029751234
254	0xbd2af1ac	-0.041734383
255	0x3ce03474	0.027368762

action_model._continuous_distribution.mu.bias f4 [2]
0	0x3c2df305	0.010617022
1	0x3cc429eb	0.02394577

action_model._discrete_distribution.branches.0.weight f4 [1, 128]
0	0x3c2aa89a	0.010416174
1	0x3b8312b8	0.004000034
2	0x3ae4a13f	0.0017443075
3	0x3a1b750a	0.0005930221
4	0x3c12d23d	0.0089612575
5	0x39a35b08	0.00031157606
6	0xbba85216	-0.0051367385
7	0x3c359130	0.011081979
8	0x3c98b1a5	0.018639395
9	0x3ac5ffe1	0.0015106165
10	0xbbd58d68	-0.006517101
11	0x3c1e616a	0.00966678
12	0xbc05a7f3	-0.008157718
13	0x3bf26d10	0.007398255
14	0x3c4013f7	0.01172351
15	0x3afb3508	0.0019165585
16	0xbbdc4a03	-0.00672269
17	0xbbf85c45	-0.0075793588
18	0xbbd0e69b	-0.0063751466
19	0x3c31564b	0.0108237965
20	0x3c2f3e5c	0.01069602
21	0xbb92e4a7	-0.004482824
22	0x3beae10b	0.0071679405
23	0x3c1d471a	0.009599471
24	0xba129325	-0.0005591384
25	0xbc183df3	-0.009292114
26	0xbc82cb73	-0.015966153
27	0x3b05be7e	0.0020407732
28	0x3a647b67	0.0008715898
29	0x3be81550	0.007082619
30	0x3bc818a6	0.006106454
31	0xbc1ddae7	-0.00963471
32	0xbc6a1803	-0.014287951
33	0xbb5ebb9a	-0.003398633
34	0x3cdd1b0b	0.026990434
35	0xbbba9bbb	-0.005694834
36	0xbc7d61f7	-0.015465251
37	0x3c05c957	0.008165679
38	0xbc8614c2	-0.01636732
39	0xbc97e61e	-0.018542346
40	0x3bc91e9c	0.006137682
41	0x3b8b57a4	0.004252391
42	0xbb6ef9b3	-0.003646475
43	0x3be09a1b	0.0068543083
44	0x3c0d6dab	0.008632104
45	0xbc270408	-0.010193832
46	0x3c06ac22	0.008219751
47	0xbb1be3a9	-0.002378682
48	0x3b3b25b5	0.002855641
49	0x3c62ff67	0.013854838
50	0x3c2c09ff	0.01050043
51	0x3c2a75f3	0.010404098
52	0x398c4ef9	0.0002676172
53	0xbbfad45b	-0.0076547093
54	0xbb39cbf3	-0.0028350323
55	0xbaffa13a	-0.0019503005
56	0x38f6c603	0.00011767077
57	0xbbe73e6f	-0.007057003
58	0xbb30ba99	-0.002696669
59	0xbb4ddb63	-0.0031411282
60	0xbbe4dd77	-0.0069844085
61	0xbb5dbf8d	-0.0033836097
62	0x3a566948	0.000817914
63	0xbb1742b1	-0.0023080523
64	0xbadbd8fa	-0.0016773038
65	0x3c19bcdc	0.0093834065
66	0xbc045c18	-0.0080785975
67	0x3a9c7df8	0.0011939397
68	0x3b675e08	0.003530385
69	0x3c40b5a1	0.011762054
70	0xbbe8d9fa	-0.007106063
71	0x3c4e0d9f	0.01257649
72	0x3ca00c93	0.019537246
73	0xbbcfed0d	-0.0063453973
74	0x3bee6632	0.007275366
75	0x3bf62abb	0.007512418
76	0xbb98ff20	-0.004669085
77	0xbb76a89b	-0.0037637118
78	0x3c59dc2d	0.013297123
79	0xbbea3232	-0.007147097
80	0xbbf3ac1a	-0.0074362876
81	0xbacecf4a	-0.001577833
82	0xbc38e763	-0.011285636
83	0xbbb5e256	-0.005550663
84	0xbc8d03d3	-0.017213738
85	0xbb84ab95	-0.0040487745
86	0xbc22be14	-0.0099330135
87	0xbc144e0b	-0.00905181
88	0xb84cba6f	-4.881102e-05
89	0x3bce9e8d	0.006305522
90	0x3c62ef8d	0.013851059
91	0x3aa33c35	0.0012453856
92	0xbb31e8c0	-0.0027146786
93	0xbc153cfe	-0.00910878
94	0x3c627cc5	0.013823693
95	0xbadb16c5	-0.001671516
96	0xbc2d7278	-0.0105863735
97	0x391cabea	0.00014941362
98	0xbad2af1d	-0.0016073916
99	0xbb8e7d5b	-0.0043484396
100	0x3abb5907	0.00142935
101	0xbbd5a043	-0.006519349
102	0x3b84e719	0.0040558693
103	0x3c5709df	0.013124912
104	0x3c592c5a	0.013255203
105	0x3c269eca	0.010169694
106	0x3a5aeeb7	0.00083516113
107	0x3ab89e3c	0.0014085243
108	0x3bb17f9f	0.005416825
109	0xbc228841	-0.009920181
110	0xbb37ca9b	-0.0028044346
111	0xbbb1c535	-0.0054251202
112	0xba87b406	-0.0010353334
113	0xbc082a03	-0.008310798
114	0x3bf9abfb	0.0076193786
115	0xbc83e8c3	-0.0161022
116	0x3b90d82b	0.0044203005
117	0xbc52e2f3	-0.012871492
118	0x3a1c91df	0.0005972664
119	0xbb4d42df	-0.0031320376
120	0x3ab8e482	0.0014106187
121	0xbbd335c2	-0.0064456174
122	0x3a13aaa5	0.0005633033
123	0x3c7ff928	0.015623368
124	0x3bf35fd8	0.007427197
125	0xbc09b437	-0.008404783
126	0x3bceb15b	0.0063077635
127	0xbba0b33a	-0.004904178
